cuda:0
32_64.csv
----------------------------------------------------------------
        Layer (type)               Output Shape         Param #
================================================================
            Linear-1                [-1, 16384]     134,234,112
     DiffuserLayer-2                [-1, 16384]               0
            Conv2d-3         [-1, 16, 128, 128]             416
       BatchNorm2d-4         [-1, 16, 128, 128]              32
         MaxPool2d-5           [-1, 16, 64, 64]               0
            Conv2d-6           [-1, 32, 64, 64]          12,832
       BatchNorm2d-7           [-1, 32, 64, 64]              64
         MaxPool2d-8           [-1, 32, 32, 32]               0
            Conv2d-9           [-1, 64, 32, 32]          51,264
      BatchNorm2d-10           [-1, 64, 32, 32]             128
        MaxPool2d-11           [-1, 64, 16, 16]               0
          Dropout-12           [-1, 64, 16, 16]               0
           Linear-13                 [-1, 1024]       2,098,176
           Linear-14                 [-1, 2048]       2,099,200
           Linear-15                 [-1, 1024]       2,098,176
           Linear-16                    [-1, 2]           2,050
================================================================
Total params: 140,596,450
Trainable params: 140,596,450
Non-trainable params: 0
----------------------------------------------------------------
Input size (MB): 0.06
Forward/backward pass size (MB): 8.28
Params size (MB): 536.33
Estimated Total Size (MB): 544.68
----------------------------------------------------------------
  0%|          | 0/1016 [00:01<?, ?it/s]
