cuda:0
32_64.csv
----------------------------------------------------------------
        Layer (type)               Output Shape         Param #
================================================================
     DiffuserLayer-1            [-1, 1, 40, 40]               0
   ConvTranspose2d-2            [-1, 1, 80, 80]              17
              ReLU-3            [-1, 1, 80, 80]               0
   ConvTranspose2d-4          [-1, 1, 160, 160]              17
              ReLU-5          [-1, 1, 160, 160]               0
            Conv2d-6         [-1, 16, 160, 160]             416
       BatchNorm2d-7         [-1, 16, 160, 160]              32
         MaxPool2d-8           [-1, 16, 80, 80]               0
            Conv2d-9           [-1, 32, 80, 80]          12,832
      BatchNorm2d-10           [-1, 32, 80, 80]              64
        MaxPool2d-11           [-1, 32, 40, 40]               0
           Conv2d-12           [-1, 64, 40, 40]          51,264
      BatchNorm2d-13           [-1, 64, 40, 40]             128
        MaxPool2d-14           [-1, 64, 20, 20]               0
          Dropout-15           [-1, 64, 20, 20]               0
           Linear-16                 [-1, 1024]       2,098,176
           Linear-17                 [-1, 2048]       2,099,200
           Linear-18                 [-1, 1024]       2,098,176
           Linear-19                    [-1, 2]           2,050
================================================================
Total params: 6,362,372
Trainable params: 6,362,372
Non-trainable params: 0
----------------------------------------------------------------
Input size (MB): 0.06
Forward/backward pass size (MB): 13.03
Params size (MB): 24.27
Estimated Total Size (MB): 37.36
----------------------------------------------------------------
100%|██████████| 1016/1016 [03:33<00:00,  4.77it/s]
…
