cuda:0
32_64.csv
----------------------------------------------------------------
        Layer (type)               Output Shape         Param #
================================================================
     DiffuserLayer-1            [-1, 1, 57, 57]               0
   ConvTranspose2d-2          [-1, 1, 114, 114]              17
              ReLU-3          [-1, 1, 114, 114]               0
   ConvTranspose2d-4          [-1, 1, 228, 228]              17
              ReLU-5          [-1, 1, 228, 228]               0
            Conv2d-6         [-1, 16, 228, 228]             416
       BatchNorm2d-7         [-1, 16, 228, 228]              32
         MaxPool2d-8         [-1, 16, 114, 114]               0
            Conv2d-9         [-1, 32, 114, 114]          12,832
      BatchNorm2d-10         [-1, 32, 114, 114]              64
        MaxPool2d-11           [-1, 32, 57, 57]               0
           Conv2d-12           [-1, 64, 57, 57]          51,264
      BatchNorm2d-13           [-1, 64, 57, 57]             128
        MaxPool2d-14           [-1, 64, 28, 28]               0
          Dropout-15           [-1, 64, 28, 28]               0
           Linear-16                 [-1, 1024]       2,098,176
           Linear-17                 [-1, 2048]       2,099,200
           Linear-18                 [-1, 1024]       2,098,176
           Linear-19                    [-1, 2]           2,050
================================================================
Total params: 6,362,372
Trainable params: 6,362,372
Non-trainable params: 0
----------------------------------------------------------------
Input size (MB): 0.06
Forward/backward pass size (MB): 26.40
Params size (MB): 24.27
Estimated Total Size (MB): 50.74
----------------------------------------------------------------
100%|██████████| 1016/1016 [04:31<00:00,  3.74it/s]
…
